gpu_info:
[32mcuda.is_available:True
[32mcuda.device_count:1
[32mcuda.device_name:NVIDIA GeForce RTX 3050 Laptop GPU
[32mcuda.current_device:0
datasets_info:
[32mtrain_inputs:50000	train_labels:50000
[32mtrain_inputs:10000	train_labels:10000
åŠ è½½ç½‘ç»œç»“æ„
net_structure:
----------------------------------------------------------------
        Layer (type)               Output Shape         Param #
================================================================
            Conv2d-1            [-1, 6, 28, 28]             456
            Conv2d-2           [-1, 16, 10, 10]           2,416
            Linear-3                  [-1, 120]          48,120
            Linear-4                   [-1, 84]          10,164
            Linear-5                   [-1, 10]             850
================================================================
Total params: 62,006
Trainable params: 62,006
Non-trainable params: 0
----------------------------------------------------------------
Input size (MB): 0.01
Forward/backward pass size (MB): 0.05
Params size (MB): 0.24
Estimated Total Size (MB): 0.30
----------------------------------------------------------------
[32mLeNet(
[32m  (conv1): Conv2d(3, 6, kernel_size=(5, 5), stride=(1, 1))
…
