gpu_info:
[32mcuda.is_available:True
[32mcuda.device_count:1
[32mcuda.device_name:NVIDIA GeForce RTX 3050 Laptop GPU
[32mcuda.current_device:0
datasets_info:
[32mtrain_inputs:50000	train_labels:50000
[32mtrain_inputs:10000	train_labels:10000
åŠ è½½ç½‘ç»œç»“æ„
net_structure:
----------------------------------------------------------------
        Layer (type)               Output Shape         Param #
================================================================
            Conv2d-1           [-1, 32, 32, 32]           2,432
         MaxPool2d-2           [-1, 32, 16, 16]               0
            Conv2d-3           [-1, 32, 16, 16]          25,632
         MaxPool2d-4             [-1, 32, 8, 8]               0
            Conv2d-5             [-1, 64, 8, 8]          51,264
         MaxPool2d-6             [-1, 64, 4, 4]               0
           Flatten-7                 [-1, 1024]               0
            Linear-8                   [-1, 64]          65,600
            Linear-9                   [-1, 10]             650
================================================================
Total params: 145,578
Trainable params: 145,578
Non-trainable params: 0
----------------------------------------------------------------
Input size (MB): 0.01
Forward/backward pass size (MB): 0.44
Params size (MB): 0.56
Estimated Total Size (MB): 1.01
----------------------------------------------------------------
[32mcifar10_net(
…
